backend/models/env_classifier_model.ckpt (torch_old, 9644 bytes, 4 tensors)

conv1.weight f8 [100, 8, 1, 1]
0	0xbfbd37e880000000	-0.11413434147834778
1	0xbf8ed48c00000000	-0.01505383849143982
2	0x3fc69b1740000000	0.17660799622535706
3	0xbfbb6bc000000000	-0.10711288452148438
4	0xbfd620c720000000	-0.3457506000995636
5	0xbfd1a8aa60000000	-0.27591952681541443
6	0x3fc0598080000000	0.12773138284683228
7	0xbfc3ddf380000000	-0.15521091222763062
8	0xbfc0830980000000	-0.12899893522262573
9	0xbfc523edc0000000	-0.1651589572429657
10	0xbfb05d6f80000000	-0.06392571330070496
11	0xbfd0e046a0000000	-0.26368871331214905
12	0x3fd257f721037f5d	0.2866189787291569
13	0x3fd22e43a0000000	0.28407374024391174
14	0xbfd0f57680000000	-0.26498186588287354
15	0xbfd24ab540000000	-0.28580981492996216
16	0xbfcc060ba0000000	-0.21893449127674103
17	0x3fbdd51800000000	0.11653280258178711
18	0xbfc69c9280000000	-0.1766532063484192
19	0x3fb7c2fd00000000	0.09281903505325317
20	0xbfb876f180000000	-0.09556493163108826
21	0xbfa5faf600000000	-0.04293030500411987
22	0xbfcbf35180000000	-0.2183629870414734
23	0xbfac311300000000	-0.055061906576156616
24	0x3fd42309cb458fd9	0.3146385655475093
25	0x3fb0b306aa6eb5b3	0.06523172055195552
26	0x3fc12c00d6260190	0.13415537315814818
27	0x3fbc295e01c16645	0.11000621359689784
28	0x3fa7878f942401e4	0.045956122239662084
29	0x3fbeabb87b60769c	0.11980774891022822
30	0xbfc0a15e7d606414	-0.12992459413433777
31	0xbfc4c00129b25c4a	-0.1621095136258382
32	0xbfcb55c8c0000000	-0.21355542540550232
33	0x3fa2565400000000	0.035814881324768066
34	0x3fb1513e00000000	0.06764590740203857
35	0xbfd31bb820000000	-0.2985668480396271
36	0xbfca469460000000	-0.2052789181470871
37	0xbfcdf90340000000	-0.23416176438331604
38	0xbfcc018bc0000000	-0.21879717707633972
39	0xbfaa223900000000	-0.0510423481464386
40	0xbfd4a8c040000000	-0.3227997422218323
41	0x3fb51af980000000	0.08244284987449646
42	0x3fd39e2260000000	0.3065267503261566
43	0x3fb744de80000000	0.09089460968971252
44	0xbf986eec00000000	-0.023860633373260498
45	0xbfc73a0cc0000000	-0.18145903944969177
46	0xbfb3a5b300000000	-0.0767471194267273
47	0xbfb24a4a00000000	-0.07144606113433838
48	0xbfcd5e37c0000000	-0.22943779826164246
49	0x3fadc3fb00000000	0.05813583731651306
50	0xbfce3cf080000000	-0.23623472452163696
51	0xbfb5426e258aa406	-0.0830448953298771
52	0xbfc3ef6bd65d3aea	-0.15574405638695704
53	0x3fd1c7a27505311c	0.27780972888719346
54	0xbfb2012ca88617f1	-0.0703304206309381
55	0x3fd561c1b5514c81	0.3340915938071661
56	0xbfb22b1e06258039	-0.07097041750012147
57	0x3fce9e247b993722	0.2392011264332093
58	0x3fb402bb790e351c	0.07816669183212749
59	0xbfb723e5c212fcb8	-0.09039150226725468
60	0x3f9fab87cc1c4624	0.03092777426997463
61	0x3fd432306ebaec0c	0.31556330502979857
62	0x3fd2afa98a413d75	0.29197157384347544
63	0x3f811ce35c750bd1	0.008355880984373261
64	0xbfb34acb00000000	-0.0753600001335144
65	0xbfc8c4c4c0000000	-0.19350489974021912
66	0xbfd4c69760000000	-0.3246210515499115
67	0x3fd141e3ba92df6e	0.26964657993402497
68	0x3f96fff02fed969a	0.022460701871202284
69	0x3fd65a34c38634e7	0.3492557439247563
70	0xbfc230f4790fd698	-0.14211898719047578
71	0xbfcc55d6d9928344	-0.22136960624359336
72	0xbfc8b021b341c509	-0.19287511112955993
73	0xbfc201787495319b	-0.1406698769809623
74	0xbf98d20f9d2d7d66	-0.024238819092145113
75	0x3fb87a717cb899bd	0.09561833662937765
76	0x3fd00c7e3a9bc1d2	0.2507625171993172
77	0x3fd34dbb1ad390c6	0.3016193162895998
78	0x3f96caf5105718db	0.022258595583274903
79	0xbf7d645e5613fe35	-0.00717579698652986
80	0x3fae4f8cbf86ce9e	0.05920066678973267
81	0x3f92b423746e2911	0.01826529882559053
82	0x3fabc875bdefdf46	0.054263762889546416
83	0x3fd1ca436a02f274	0.27797017433821414
84	0x3fb1e9032de44dbf	0.06996173735051679
85	0x3fbe9f0f85192190	0.11961457251994134
86	0xbfbc522a60034ea7	-0.11062874645295527
87	0xbfbb537cca6a46e5	-0.10674266759658797
88	0x3fc44e4e40000000	0.15863969922065735
89	0xbfd4c74c40000000	-0.3246641755104065
90	0xbfbf769900000000	-0.12290340662002563
91	0xbfd2535ce0000000	-0.28633806109428406
92	0x3fcf6920ad66fa44	0.2453957411471085
93	0x3fb3628d00000000	0.07572251558303833
94	0x3fb6570a80000000	0.08726564049720764
95	0xbfd13a51a0000000	-0.26918449997901917
96	0x3fd12d5ffd443d46	0.26839446766912933
97	0xbfce578f0422e6ec	-0.23704707815141235
98	0xbfd047a12287124a	-0.25437191364133993
99	0x3fd1305892704f87	0.2685758047166406
100	0xbf8367a2e1e0f8aa	-0.009475014227174523
101	0x3fd1d7722b5927f5	0.2787747786829862
102	0xbfc8561770cbd7d5	-0.19012730605726227
103	0x3fd0f4925f0c1b5b	0.2649274757572379
104	0xbfc2ad7953659320	-0.1459190041743108
105	0x3fd250e6056e6a13	0.2861876538314913
106	0x3fc3f8b40bd1f7a7	0.15602732255132176
107	0x3fc0cd8edc0795e0	0.13127313369402227
108	0x3faff9436a38f658	0.062448603359808785
109	0xbfc5a6d0f8a451ed	-0.1691533292838722
110	0xbfba0cef97acea49	-0.10175988629354395
111	0xbfcbcc3e5562c6e7	-0.21717051667433582
112	0x3fd3a49a60000000	0.3069215714931488
113	0xbfc545e460000000	-0.16619543731212616
114	0xbfc9bd0500000000	-0.20108091831207275
115	0xbfbe5da7c0000000	-0.11861656606197357
116	0x3fd00c4cce227523	0.250750733664818
117	0x3fc3f05fc0000000	0.1557731330394745
118	0xbfd657d420000000	-0.3491106331348419
119	0xbfccd92880000000	-0.2253771424293518
120	0xbfc95bcfe0000000	-0.19811438024044037
121	0x3fd19a91e0000000	0.27505919337272644
122	0x3fbe382100000000	0.11804395914077759
123	0xbfce59e080000000	-0.23711782693862915
124	0x3fd453a3503e1d27	0.3176048549289185
125	0xbfce9effe0000000	-0.2392272800207138
126	0x3fa5495600000000	0.04157513380050659
127	0xbfd4b80a80000000	-0.32373297214508057
128	0xbfb891075c89fcf8	-0.09596296319249464
129	0x3fafcd7341aeebf6	0.062114335792521944
130	0x3fd0c38c48b0d239	0.2619353017683213
131	0x3fcf1150f2af8c13	0.24271594858063902
132	0xbf67376d8ec4db03	-0.0028340472983033895
133	0xbfcaa322b9fe260e	-0.20810350495985158
134	0x3fb1d2eb3065506f	0.06962461406266283
135	0x3fd36a063c7690ef	0.3033462133846702
136	0xbfd03c74253c2a14	-0.25368980060798774
137	0xbfc054c209b1d9ab	-0.12758660767913219
138	0x3fc65b5df7395028	0.17466330119589313
139	0x3fca0c1489264a4d	0.2034936589885369
140	0xbfd235c344cf2c2a	-0.2845314189877991
141	0x3fc926f03c5294b5	0.19650080628813318
142	0x3fc421cb137371b9	0.1572812886214601
143	0xbfcb121b24805cdd	-0.2114900520543647
144	0xbfd4fdabc0000000	-0.3279828429222107
145	0xbf86f5a000000000	-0.01121068000793457
146	0x3fd2a3bb20000000	0.2912433445453644
147	0x3f62718f31bc10c8	0.0022514149440003607
148	0x3fd05ea71bdfe895	0.25577714655049394
149	0xbfd0c75bf887441c	-0.2621679236445418
150	0xbf72010e509563f6	-0.004395538251025668
151	0x3fa42538363d2c4c	0.039346462841955615
152	0x3fc23551c0000000	0.14225217700004578
153	0xbfd2201840000000	-0.2832089066505432
154	0x3fc92e59c0000000	0.19672700762748718
155	0xbfc1481520000000	-0.13501228392124176
156	0xbfc02eb5a0000000	-0.12642545998096466
157	0x3fc0c581c0000000	0.1310274302959442
158	0xbfcd00be80000000	-0.22658520936965942
159	0xbfca749e20000000	-0.20668388903141022
160	0x3fc21bbb80000000	0.14147132635116577
161	0x3fb2943200000000	0.07257378101348877
162	0x3fba845880000000	0.10358193516731262
163	0xbfc9e38ce0000000	-0.20225678384304047
164	0xbfd23e87c0000000	-0.28506654500961304
165	0x3fd1c28720000000	0.2774980366230011
166	0xbfcaaa9ec0000000	-0.2083319127559662
167	0xbfd516aae0000000	-0.329508513212204
168	0xbfc10277e0000000	-0.1328878253698349
169	0x3fd188dd20000000	0.27397850155830383
170	0xbfd15ac620000000	-0.2711654007434845
171	0xbfc6a4d4c0000000	-0.17690524458885193
172	0xbfcc7e36c0000000	-0.2226017415523529
173	0x3fb654c080000000	0.08723071217536926
174	0x3fcd0d6dc0000000	0.2269723117351532
175	0xbfd043a520000000	-0.25412872433662415
176	0x3fb822eec6416d0a	0.09428303089355353
177	0x3fb6dcacc8eaa783	0.08930473237219698
178	0xbfd22c96ee3afc6f	-0.28397153153122806
179	0xbfa229a8eaf71b9e	-0.035474089319499344
180	0x3fc06fe817ee1919	0.1284151188703582
181	0xbfc8e7cf78eedd62	-0.194574293183659
182	0x3fc012c0c308acb1	0.12557229540957374
183	0x3fd0a5b4c7803a7a	0.2601139019251729
184	0xbfd342c1e7cb43db	-0.3009495509732553
185	0x3fd0ba3218df1569	0.2613644831547704
186	0xbfa9ccdf3cb12cd0	-0.05039117446775665
187	0x3f80a129979b45d0	0.008119893016018148
188	0x3fab79d78ce7c89f	0.05366395564114267
189	0x3fcbf837d8f6e409	0.21851251691785503
190	0xbfc541b98b527a61	-0.16606826117363752
191	0x3fc00bdcc030ceb7	0.12536200889882362
192	0xbfd5a834c0000000	-0.3383914828300476
193	0xbfd4ccb7c0000000	-0.3249949812889099
194	0x3fc74d6440000000	0.18204930424690247
195	0xbfce4179a348938e	-0.23637314293696615
196	0x3fcac2ebd2734061	0.209073522337806
197	0x3fab2e293b4015b6	0.05308655594130178
198	0x3fcd1c3a0ed5bd9b	0.22742391323434394
199	0xbfa88aa7c27c7c6b	-0.04793285607433336
200	0x3fa5ec7000000000	0.04281949996948242
201	0xbfc941ef00000000	-0.19732463359832764
202	0xbfc74d4f60000000	-0.1820468157529831
203	0xbfd3e8f220000000	-0.31109288334846497
204	0xbf9699a600000000	-0.022070497274398804
205	0x3fc4a7f040000000	0.16137507557868958
206	0xbfd5151e40000000	-0.3294139504432678
207	0xbfc4e5b2a0000000	-0.163259819149971
208	0x3fc51c658312cdae	0.16492909336157652
209	0xbfc9d27c1e63ad61	-0.2017359875093048
210	0x3fb4b18d05594719	0.08083421116432667
211	0xbfbf4372cd3e3f2d	-0.12212293158358696
212	0xbfd013516bbbcf91	-0.25117908020842444
213	0x3fcace2ae09b550a	0.2094167324745871
214	0x3fcc6209bb0072cc	0.22174188261933236
215	0xbf91c15a1be43a22	-0.017339141800272746
216	0x3f84330800000000	0.009862959384918213
217	0xbfd5a39640000000	-0.33810955286026
218	0xbf6ecce000000000	-0.0037598013877868652
219	0xbfc6370880000000	-0.17355448007583618
220	0xbfd26efa00000000	-0.2880234718322754
221	0xbfc65cb840000000	-0.17470458149909973
222	0x3fc8b72840000000	0.19308951497077942
223	0x3fa294df00000000	0.036292046308517456
224	0x3fb0b43900000000	0.0652499794960022
225	0xbfce2aef40000000	-0.23568525910377502
226	0x3fc2a07640000000	0.14552190899848938
227	0x3fbccbd200000000	0.11248505115509033
228	0xbfc3b496e0000000	-0.15394864976406097
229	0xbfd0aec3a0000000	-0.26066675782203674
230	0x3fd212f2e0000000	0.2824065387248993
231	0xbfc9d1c3c0000000	-0.20171400904655457
232	0x3fb285b380000000	0.07235261797904968
233	0x3fbf14bb00000000	0.121410071849823
234	0xbfd57541a0000000	-0.33528175950050354
235	0x3f630b5000000000	0.002324730157852173
236	0xbfd4cb5500000000	-0.32491040229797363
237	0x3fd33c4e60000000	0.3005557954311371
238	0xbfc09ea960000000	-0.12984196841716766
239	0xbfcc0b23a0000000	-0.21908994019031525
240	0xbfd63db8a0000000	-0.3475171625614166
241	0xbfcf2d95c0000000	-0.24357864260673523
242	0xbfd2e645c0000000	-0.29530471563339233
243	0x3fd039aa2785dea0	0.25351957187329255
244	0xbfc5880086ab1016	-0.16821295333477398
245	0xbfb402af13e5a7ad	-0.07816595302361291
246	0x3fa29504a3561a40	0.03629316800929816
247	0xbf9a1b204c28045b	-0.025494103096211123
248	0xbfc3a6b310678dba	-0.15352476407052312
249	0x3fbfd9b39cbaf580	0.12441561294959591
250	0xbfd3cc0bf8796572	-0.3093290258890057
251	0x3fd0420134da0347	0.25402860795297894
252	0x3fd251b17c70f775	0.28623616363972043
253	0x3fb56b75cce725d9	0.08367096188080526
254	0xbfc548204d7edeba	-0.16626361640895998
255	0xbfc5b4ced6255c7d	-0.16958032089562272

conv1.bias f8 [100]
0	0xbfca108420000000	-0.2036290317773819
1	0x3fd2e7c6dd294419	0.29539653394482596
2	0xbfb3183880000000	-0.07458832859992981
3	0x3fd51bf18a1cb395	0.3298305367232442
4	0xbfca98b520000000	-0.20778526365756989
5	0x3fd53b50e0000000	0.33174535632133484
6	0x3fb64671367fb865	0.0870123632482503
7	0xbfbcbda6cb7e8644	-0.11226885288353922
8	0x3fb420ea40f32018	0.07862724385915987
9	0xbfcc9b8b1c75ce81	-0.22349680795342766
10	0xbfa8298da9f7e212	-0.04719202709015148
11	0xbfc5bbb4820ac37e	-0.16979080533704044
12	0xbfd63e31d63c3343	-0.34754606171991415
13	0xbfa2de33cfa31646	-0.036851519676514274
14	0xbfcdff711e7e5fac	-0.2343579672713053
15	0x3fc3c6cb78b14001	0.15450423615629919
16	0x3fd3f31edae5aa17	0.3117138993899586
17	0x3fc9a247b8e1b54a	0.20026489760804572
18	0x3fd4130f51f6a9a3	0.31366332058191854
19	0x3f85039000000000	0.010260701179504395
20	0xbfc8da5e60000000	-0.19416408240795135
21	0x3fbe12ee00000000	0.11747634410858154
22	0x3fbb0f7b392abfa9	0.10570497651747125
23	0x3fc8d7e51665024f	0.19408858865246478
24	0xbfd0b2e9899acd4a	-0.26091993749578946
25	0x3fd24446e0000000	0.2854172885417938
26	0xbfb10d10b1cdfd38	-0.06660560933049886
27	0xbfccc9cee0000000	-0.22490869462490082
28	0x3fc2577700000000	0.14329421520233154
29	0x3fc2acd100000000	0.1458989381790161
30	0xbfc98063f2c8c3c8	-0.19923066477488605
31	0x3faced6d66fe331d	0.05649892694700596
32	0xbfaecfd5117af3b8	-0.06017938459760991
33	0xbf74761fa962e98b	-0.004995464018231375
34	0x3fd222e76df317f2	0.2833803724028022
35	0xbfb192a07c5292cb	-0.06864359889238895
36	0xbfaa7d891ebee85e	-0.05173901081384778
37	0xbfd435fe80000000	-0.31579554080963135
38	0xbfb24846eca6139f	-0.07141536023671201
39	0xbfbe8cd033cb1ab5	-0.11933614029394841
40	0x3fba92ec00000000	0.10380434989929199
41	0x3fb185f1c5355c29	0.0684500795808708
42	0xbfb6bfe500000000	-0.08886557817459106
43	0x3fbd52580c0d99ae	0.11453771871820237
44	0x3fd4f6159cc6767a	0.32751980123598623
45	0x3fd00af52425e1be	0.2506687977798058
46	0xbfd11efd50863e78	-0.26751644958219556
47	0x3fd21ef220000000	0.28313878178596497
48	0x3fc7070d03709bae	0.179902674369456
49	0x3fc920e0eec46ba8	0.19631587656553262
50	0xbfcd3e97a0000000	-0.22847266495227814
51	0xbfb9d77c00000000	-0.10094428062438965
52	0x3fc6f8f7bcffa043	0.17947289207882208
53	0xbfc077faa0000000	-0.12866146862506866
54	0x3fd2e4486f624613	0.29518328549701883
55	0x3fc0f44600000000	0.13245463371276855
56	0x3fd2f41b63cee534	0.29614910838025144
57	0x3fc1f3e6e23919e7	0.14025579496428905
58	0xbfc9dd9fc0000000	-0.20207592844963074
59	0x3fa4b9088e129abe	0.04047419294629638
60	0x3fbf7258f6822c6c	0.1228385545565957
61	0xbfcafe0580000000	-0.21087712049484253
62	0xbfc2c5e093840cf5	-0.14666373446389228
63	0x3fcec4e32cdbb6cf	0.24038352670998228
64	0x3fcfae187a7a21e8	0.2475004766495339
65	0xbfc042f81bfd7ba2	-0.12704373709399613
66	0xbfc5b7d264294604	-0.16967229738888545
67	0xbfc08df8d7e95ced	-0.12933264296109517
68	0x3fd41027bef618ae	0.31348603867116764
69	0x3fd1439b2c11de51	0.26975135139170897
70	0x3fc9c6bd22dd0d07	0.2013775272590481
71	0x3fd4f66ec8166160	0.3275410608271354
72	0x3fc5b5171a858dec	0.16958893580441214
73	0x3fd199dba0000000	0.2750157415866852
74	0x3fc28fe980000000	0.1450168490409851
75	0xbfc21eb180000000	-0.14156168699264526
76	0xbfcc41b540000000	-0.22075524926185608
77	0xbfc7ad6d057a45e8	-0.1849800373789059
78	0x3fd3c7c51bdf04e7	0.30906799051088146
79	0xbfc25efd021a8853	-0.1435238132735913
80	0xbfd386ef95224ca5	-0.30511083186974935
81	0xbfd3cbc5af536dc4	-0.30931226846379567
82	0xbfce998dc0000000	-0.23906108736991882
83	0x3fa262cecfac144e	0.035910094118698596
84	0x3fafc84f7646a622	0.06207512205885403
85	0xbf9cf92fa343faf2	-0.028294319477022385
86	0xbfc2b0c207576215	-0.14601922377075086
87	0xbfb3dd32ff845d49	-0.07759398210725012
88	0xbf907d5e19a352b8	-0.016103239359682248
89	0xbfc262cf73cedb95	-0.1436404529065071
90	0xbfc98b4000000000	-0.19956207275390625
91	0xbfcc80d94a6d0779	-0.22268215307309072
92	0xbfd1d45a40000000	-0.2785859704017639
93	0xbfd16bea36802604	-0.2722116024238803
94	0xbfd5e61933a7ac85	-0.34216909450942296
95	0xbfc9ee696a0ed114	-0.20258824995620073
96	0xbfc89ab720000000	-0.192221537232399
97	0x3fb8968617ccea6d	0.09604681092324947
98	0xbfc42be9f168ecaa	-0.15759014403906707
99	0x3fb3c1ad15658a7e	0.07717401287440315

conv2.weight f8 [2, 100, 1, 1]
0	0x3fa73d3ac0000000	0.04538901895284653
1	0xbf9e744f899164db	-0.02974056508205512
2	0xbfb56d6840000000	-0.08370067179203033
3	0xbfad6aef43c46520	-0.057456471464499836
4	0xbfab713ee0000000	-0.053598370403051376
5	0x3fa5cb8740000000	0.042568422853946686
6	0xbfae36d59377dc61	-0.059012102366914794
7	0xbfb92f0ae93f8590	-0.0983740634396979
8	0xbfb36f0707c2675e	-0.07591289462507464
9	0xbfa43ffcd261bf9a	-0.03955068653237888
10	0xbfb37f0512d10ee4	-0.07615691861525026
11	0xbfb75669b4662c0d	-0.09116230634951723
12	0x3faeb02d46ad7079	0.05993787276995106
13	0xbfa772a736b850b9	-0.04579660933464553
14	0x3fa288ccc390dbdc	0.03619995009687901
15	0x3f83a6d1e146e91a	0.009595527350815081
16	0xbf8a8e8dd3913172	-0.012967212695138317
17	0x3fb56646af7ea834	0.08359185967006583
18	0x3f64047a52c92b53	0.0024435414436871166
19	0xbf9457cb00000000	-0.019866153597831726
20	0x3fb4ecfa20000000	0.08174098283052444
21	0xbf92bc3580000000	-0.01829608529806137
22	0x3fafe97e4e7cd0a7	0.062328288155556515
23	0x3fa4606e0ff6f11a	0.039798201988988605
24	0x3fb419019408014b	0.07850656379742309
25	0x3fb9142d20000000	0.09796411544084549
26	0xbfb62707aa5872b0	-0.08653304966760333
27	0xbfaa0358e0000000	-0.050806786864995956
28	0xbf808adb00000000	-0.008077345788478851
29	0x3fa1342d40000000	0.03360120207071304
30	0x3fa6d4a74094a0fe	0.04459116614663293
31	0xbf9ca16f9b01644e	-0.027959579311162046
32	0x3fa8acc62a15dc31	0.04819316161859211
33	0xbfb79bc5a3acc999	-0.09222064252825247
34	0xbfb8e289989c6997	-0.09720668769697337
35	0x3fb05d22fc81ed81	0.06392115273222566
36	0x3fa572807d8f830a	0.041889205291005
37	0xbfaa052c00000000	-0.05082070827484131
38	0x3fa99826e1ebb20b	0.04998895175763004
39	0x3f968a5374d3f12d	0.022012046819314058
40	0x3fb19488e0000000	0.06867270916700363
41	0xbf94d2423ffe0564	-0.020333323627260383
42	0x3f7db3e400000000	0.007251635193824768
43	0x3fb8afe820095273	0.09643412382258436
44	0xbfa1895fa78d6519	-0.03425120277706579
45	0x3fb866b827ecd42c	0.09531737303480331
46	0x3f8c71350df561cc	0.013887800682525951
47	0xbf9423d400000000	-0.01966792345046997
48	0x3fb5731ec25ea518	0.08378784413675466
49	0xbfba0fb27e133ba0	-0.10180202081686085
50	0x3fb1175520000000	0.066762275993824
51	0x3fa90086c0000000	0.04883214086294174
52	0x3fb0f38c2d50355b	0.06621624094278415
53	0xbfa65abe60000000	-0.04366106912493706
54	0xbfb38cfb188be56e	-0.07636994694975893
55	0xbf8d285d00000000	-0.014237143099308014
56	0x3fb541e3a7254f02	0.083036640460076
57	0x3faa83ee234588e7	0.05178779774247904
58	0xbfb5819ec0000000	-0.0840090960264206
59	0x3fa58c7d68121d4a	0.04208747764010441
60	0x3fb6fbad7e6ebf4a	0.08977779709561876
61	0xbfb5763c40000000	-0.08383537828922272
62	0xbfb4e75a376a89f7	-0.08165515759404927
63	0x3fa8a661174a19e3	0.048144373028708796
64	0x3f31d15ad1289c9a	0.00027187792980716
65	0x3f9bd8ebaa54ac25	0.027194673796810193
66	0xbfb90a757c63579d	-0.09781584059541477
67	0x3f8ae6d90e2961b3	0.013135619873694581
68	0x3f884a5b628caae9	0.011860574669829886
69	0x3fb868640eabad34	0.09534287794274549
70	0xbf946d374bd3c229	-0.01994787597954165
71	0x3f98572cb99971d9	0.023770045116508463
72	0x3f9375945d026557	0.019003217865792035
73	0x3f9c7ed980000000	0.027827642858028412
74	0x3fa10b7fc0000000	0.03329085558652878
75	0x3f9fe3f780000000	0.031143061816692352
76	0x3fb56d93a0000000	0.08370325714349747
77	0x3f9656f013eb689a	0.02181601640300155
78	0xbfa3e0ea33244b94	-0.03882533907212529
79	0xbfa29bf209fe199c	-0.03634601947765079
80	0xbfb46535a3005f75	-0.07966933469321964
81	0x3f92606d64ddad94	0.01794596603523997
82	0xbfac89f9a0000000	-0.05574016645550728
83	0x3f9e32dadb7f09dd	0.029490871092784466
84	0x3fb0233346f20943	0.06303711397234672
85	0xbf940228d1b28787	-0.01953948764697302
86	0x3f961cf1330cca6a	0.021594780674784188
87	0x3fac4249a1630808	0.05519323439649787
88	0x3f630368feb9e6c7	0.002320962017447001
89	0xbfb7682e94cb70cf	-0.09143344052012313
90	0x3f72f2ac00000000	0.004625961184501648
91	0xbfad943070b0d2ad	-0.05777121902102542
92	0x3fa68b0c40000000	0.044029600918293
93	0x3f8b75dab3433d27	0.013408382983839019
94	0x3f9576ae8fca3751	0.020960547949065603
95	0x3faeeea452c750cc	0.06041444311600372
96	0xbfa6e65340000000	-0.044725991785526276
97	0x3fb4ef97f2aea94a	0.08178090739116786
98	0xbfb7141234c3c9d6	-0.09015001095011796
99	0x3faf5d10bac0264c	0.06125690726919383
100	0x3fb49f13e0000000	0.08055233210325241
101	0x3f81cdd8bc504841	0.008693402525782658
102	0x3fa4300cc0000000	0.03942909091711044
103	0xbf3030c25e92707b	-0.00024704690310684674
104	0x3fb0575b20000000	0.06383294612169266
105	0xbfa0d1c6c0000000	-0.032850466668605804
106	0x3faa03c5f58f9cfe	0.05081003782816572
107	0x3fb2e57fbee6bec7	0.07381437693288283
108	0xbfb304f581535c52	-0.07429441840518905
109	0xbf7701348d66b41e	-0.005616383822069996
110	0x3fa90870cdef0b32	0.0488925219902029
111	0xbf908885a5301644	-0.016145790297761545
112	0xbfb39b37e7daea07	-0.07658719454313011
113	0x3f7785e7a93af544	0.005742936063766028
114	0x3fb6bf9db382b0f6	0.08886132843571545
115	0x3fa5ecbdef09b6fe	0.04282182257598598
116	0xbfb53fc7bc059b41	-0.08300445881250786
117	0xbfb1b75e2846411d	-0.06920422061216809
118	0xbfb31cbc22c62066	-0.07465720986340471
119	0x3fad6fef40000000	0.057494617998600006
120	0x3fae662ac0000000	0.059373222291469574
121	0x3fa2c02fc0000000	0.03662251681089401
122	0xbfa0c35f49792734	-0.03274057170763314
123	0xbfb01560ab42ec0a	-0.06282619649111623
124	0x3fae151aa0ae6473	0.058754760851294295
125	0xbfb4f28700000000	-0.08182567358016968
126	0x3fb126667131f028	0.06699219001342327
127	0xbfb383bc40000000	-0.07622887194156647
128	0xbf941d1700000000	-0.019642218947410583
129	0xbf88b00a00000000	-0.01205451786518097
130	0xbf94622442bb921c	-0.019905630658188497
131	0xbf8522d5f9efbd1c	-0.01032035035129169
132	0x3fb518381ff7521b	0.08240080624029426
133	0xbfb8ff4785a9bb38	-0.0976452542615619
134	0xbfb0c5f48778d5fa	-0.06552055652067415
135	0xbfb441f437f8e40c	-0.07913137785443797
136	0x3fb236c8b5c82fd3	0.07114843786274543
137	0xbfa104ccc0000000	-0.03323974460363388
138	0x3fb62bc3280fd168	0.08660526016303083
139	0x3fa225489026ee3f	0.03544070014637812
140	0x3f87a79300000000	0.011550091207027435
141	0x3fb031ba95dff613	0.06325880202344818
142	0xbf9c92f580000000	-0.02790435403585434
143	0xbfb0ea12f1cfabd3	-0.06607168582529192
144	0xbfb3c01bfd74cd37	-0.07715010583779223
145	0xbf9de794ef0afb42	-0.02920372685434392
146	0x3f9c286c690b7552	0.027497953330443643
147	0xbfa03bda00000000	-0.03170663118362427
148	0xbfa17fc0e14008ad	-0.03417780637393384
149	0xbfb528fd00000000	-0.08265668153762817
150	0x3fa386b940000000	0.03813723474740982
151	0xbf904e4d80000000	-0.015923701226711273
152	0x3fb0a45e3e4a850d	0.06500805874613409
153	0xbf7391dc00000000	-0.004777774214744568
154	0xbf5da31b38b700d7	-0.0018089071116805155
155	0x3fb417bda0000000	0.07848725467920303
156	0x3fae3aff8ec277ed	0.05904387109443108
157	0xbfb81239ac0209e9	-0.0940280957166021
158	0xbf9b900300000000	-0.02691654860973358
159	0x3fa6bce2e9679b11	0.044409838668619035
160	0xbfa9d587950b7fff	-0.05045722669979113
161	0xbf9f676800000000	-0.030667901039123535
162	0x3fb9333520000000	0.09843761473894119
163	0xbfa7d63a05327899	-0.04655629456941419
164	0x3fa01075f1316288	0.03137558526276957
165	0x3fa6a53410b3da4e	0.04422915176285312
166	0x3f9be288b2e3f84f	0.027231346052751623
167	0x3fb35dbba1d04866	0.07564900112655124
168	0xbfb5a238ab5be7bf	-0.08450655158585983
169	0x3fb17b6c7f936807	0.06828954805988029
170	0x3fb4f7e456d2a312	0.08190753097245487
171	0xbfb040ac7a9584d4	-0.0634868430402265
172	0xbf7b791702b617ff	-0.006707277188416682
173	0x3f9b320880000000	0.026558049023151398
174	0x3fb84034a0000000	0.0947296991944313
175	0xbf90ddf500000000	-0.016471698880195618
176	0xbfb9676200000000	-0.09923374652862549
177	0x3f9d5b952fb01d5d	0.028669672999993668
178	0x3f74a57392bb19be	0.005040599305806413
179	0xbf7afbc3281ccb65	-0.006587755518739556
180	0x3fa11c25e4e96a24	0.0334178773816414
181	0x3f8ea05924516d96	0.014954277439918322
182	0xbfa3a357a0000000	-0.03835557773709297
183	0xbf950ccc6d6f8ef4	-0.02055663507407153
184	0x3f9784bc00000000	0.022967278957366943
185	0x3f9e4c7123a5c365	0.02958847789836074
186	0xbfb54551df7122a7	-0.08308898644566885
187	0x3f74bf482a2011a4	0.005065233128338429
188	0xbfb0fb01e2f284f8	-0.06633006849962786
189	0xbf9be968ab9be066	-0.027257571672607027
190	0xbfa7656740000000	-0.04569552093744278
191	0xbfb0ee299b361059	-0.06613407172523135
192	0xbfb46be460000000	-0.07977130264043808
193	0x3fb4ba97229574a9	0.08097214311915714
194	0x3fb25166e0000000	0.07155459374189377
195	0xbf9b5f81de761b0d	-0.026731518938983224
196	0xbfaed86660000000	-0.06024475023150444
197	0x3fb29a1ce6e953ba	0.07266407620893647
198	0x3f9c30cc0a3d3771	0.02752989590162919
199	0x3fadb4c865156092	0.05801988824777128

conv2.bias f8 [2]
0	0x3fac2b7091e06d7e	0.05501891880723074
1	0xbfacf64ac427e988	-0.05656655926209725
